…
Finished Pseudo documents generation.

### Phase 2: pre-training with pseudo documents ###

Neural model summary:
Model: "classifier"
__________________________________________________________________________________________________
Layer (type)                    Output Shape         Param #     Connected to
==================================================================================================
input (InputLayer)              [(None, 500)]        0
__________________________________________________________________________________________________
embedding (Embedding)           (None, 500, 3072)    179582976   input[0][0]
__________________________________________________________________________________________________
conv1d (Conv1D)                 (None, 499, 20)      122900      embedding[0][0]
__________________________________________________________________________________________________
conv1d_1 (Conv1D)               (None, 498, 20)      184340      embedding[0][0]
__________________________________________________________________________________________________
conv1d_2 (Conv1D)               (None, 497, 20)      245780      embedding[0][0]
__________________________________________________________________________________________________
conv1d_3 (Conv1D)               (None, 496, 20)      307220      embedding[0][0]
__________________________________________________________________________________________________
global_max_pooling1d (GlobalMax (None, 20)           0           conv1d[0][0]
__________________________________________________________________________________________________
global_max_pooling1d_1 (GlobalM (None, 20)           0           conv1d_1[0][0]
__________________________________________________________________________________________________
global_max_pooling1d_2 (GlobalM (None, 20)           0           conv1d_2[0][0]
__________________________________________________________________________________________________
global_max_pooling1d_3 (GlobalM (None, 20)           0           conv1d_3[0][0]
__________________________________________________________________________________________________
concatenate (Concatenate)       (None, 80)           0           global_max_pooling1d[0][0]
                                                                 global_max_pooling1d_1[0][0]
                                                                 global_max_pooling1d_2[0][0]
                                                                 global_max_pooling1d_3[0][0]
__________________________________________________________________________________________________
dense (Dense)                   (None, 50)           4050        concatenate[0][0]
__________________________________________________________________________________________________
dense_1 (Dense)                 (None, 2)            102         dense[0][0]
==================================================================================================
Total params: 180,447,368
Trainable params: 864,392
Non-trainable params: 179,582,976
__________________________________________________________________________________________________

Pretraining...
Epoch 1/30
4/4 [==============================] - 14s 4s/step - loss: 0.3670
…
